results/trained_models/fc_0.03_0525.pt (torch, 83135 bytes, 6 tensors)

fc1.weight f4 [128, 26]
-1.23439 0.22928776 0.07476894 -0.38283765 0.7436029 -0.121519476 -0.61512893 -0.78278804
0.033721928 -0.3727162 -0.16764417 -1.8539484 -0.12939453 -0.17821793 -0.64880764 -1.8765348
-0.58791447 0.020478576 0.13505112 -0.5647306 0.034187805 0.41785318 -0.7012773 -0.4932498
0.23846287 0.006746277 0.9008648 -0.32300496 -0.14694202 -0.61565685 0.13309869 0.21889225
0.0034929214 0.13250217 0.40203273 -0.20522803 -0.17408478 0.22066611 0.09416307 -0.49763379
-0.09637284 -0.9218674 0.43003923 -1.1358469 0.10108773 0.027922412 -0.04591222 -1.0286455
-0.374703 0.20321234 0.42914045 -0.2897736 -0.16640848 -0.8321752 -0.17329763 -0.07879359
0.28119323 -0.78801465 -0.6669324 0.72908765 0.7167306 0.14737673 0.11984531 -0.66786015
-0.29334518 0.4348403 -0.599327 0.5456474 -0.076194555 -0.01186612 -0.2980781 -0.975277
0.47321245 -3.0256288 -0.017797727 -0.5173542 0.013821962 -0.07081946 -0.038492326 -1.6919954
-0.04267275 -0.6047273 0.15540092 -0.05310415 0.06804159 -0.28349695 -0.37190616 -0.10246477
-0.17168215 -0.97668165 -0.22629695 0.7404826 0.030327147 0.15703383 -0.0034976776 0.4170481
0.07360723 -0.54301625 -0.23582394 -1.3178272 -1.4363433 -1.5247877 0.19722793 -0.50785553
-0.4056699 0.4353595 -0.51459944 -2.5864713 -0.6125982 0.5424843 -0.18596783 -0.62308383
0.2980284 -1.1933451 -0.6994455 -0.57794404 -0.07243567 -1.0251882 0.22524709 -1.5310953
-0.044782534 -0.8012389 0.11190848 2.3561 -0.053602673 -5.2383924 -0.18311559 -0.68537754
0.9145738 -0.87610644 -0.4881131 0.3557322 -0.17634758 -1.3458247 -0.8305694 -0.4235934
-0.34786767 -1.0300264 1.0689107 -1.0842168 -0.25612202 -0.34557566 -0.6522274 -1.0768661
-0.8357379 -1.1475799 0.653814 -0.7059707 -0.09936417 0.918443 -0.49914905 1.3818759
0.73062235 1.5512626 0.39607745 -0.5445151 -0.88338697 0.1355281 -0.40143794 -0.22179049
0.3579699 0.7100808 0.17151533 -0.4881907 -0.14532389 -0.47478706 -0.0027944476 -0.20937483
0.43234953 0.5511353 0.06431897 -0.16258852 -0.15752228 0.166623 -0.100659825 0.28987625
-0.5387092 -1.104047 1.0383838 -1.1923833 0.15184668 0.03155033 -0.58981574 0.2524795
0.27195492 0.719308 -0.35792068 -1.4035689 0.045782063 0.105010524 -0.3438547 0.15256454
-0.1202276 0.5629073 0.2419091 -0.84180015 -0.13249555 -0.49332485 0.39756712 -0.60973024
-0.26683286 0.32630184 0.39256027 0.33716372 0.024272436 0.4800809 -0.48077902 0.027105562
-0.717553 0.52171373 -0.075721994 0.069804475 0.37632498 0.08337315 0.2299571 -0.37394616
-0.10426829 0.5487573 0.26443902 0.8676808 0.204987 0.46913886 -0.104505636 0.40401605
-0.03871845 -0.5002862 -0.033881925 -0.7362665 0.018251544 -0.24330802 -0.19978182 -0.52078235
0.25258613 -0.43125084 -0.5278783 0.44861883 -0.5767494 -0.66321886 0.22531365 1.9716295
-0.15502556 -2.0014682 0.1771148 -0.3259124 0.078655064 0.058281522 0.43438154 0.82373005
-0.12512319 -1.9790819 0.012382293 -1.1954527 -0.4581421 -0.30613637 0.21873508 1.837488
00000000: 7e00 9ebf 69ca 6a3e 7520 993d 4c03 c4be
00000010: c25c 3e3f 34df f8bd 1779 1dbf cc64 48bf
00000020: 0120 0a3d a8d4 bebe eaaa 2bbe 2e4e edbf
00000030: 0080 04be c37e 36be 4218 26bf 4b32 f0bf
00000040: 9081 16bf b0c2 a73c d74a 0a3e 2f92 10bf
00000050: 8308 0c3d daf0 d53e e986 33bf 3d8b fcbe
00000060: 9c2f 743e e00f dd3b 139f 663f e860 a5be
00000070: f877 16be b09b 1dbf 064b 083e 4a25 603e
00000080: 7fe9 643b a6ae 073e 3cd7 cd3e 4c27 52be
00000090: 4843 32be 4cf6 613e 91d8 c03d dbc9 febe
000000a0: 205f c5bd 80ff 6bbf 1a2e dc3e 6e63 91bf
000000b0: 1507 cf3d 8bbd e43c 740e 3cbd a8aa 83bf
000000c0: 12d9 bfbe e516 503e 4cb8 db3e 355d 94be
000000d0: fc66 2abe 6f09 55bf ef74 31be 895e a1bd
000000e0: 8ff8 8f3e 54bb 49bf 15bc 2abf 7da5 3a3f
000000f0: a87b 373f ede9 163e 7571 f53d e2f8 2abf
00000100: 5731 96be 63a3 de3e 7f6d 19bf 8caf 0b3f
00000110: e40b 9cbd 1d6a 42bc b19d 98be c1ab 79bf
00000120: e748 f23e e7a3 41c0 8acc 91bc 5371 04bf
00000130: 8375 623c cb09 91bd 21aa 1dbd 4e93 d8bf
00000140: 9fc9 2ebd 69cf 1abf 6b21 1f3e bd83 59bd
00000150: 6459 8b3d 8326 91be 7c6a bebe 0dd9 d1bd
00000160: 72cd 2fbe cf07 7abf 63ba 67be 4590 3d3f
00000170: a370 f83c 7acd 203e 4b39 65bb 5487 d53e
00000180: 63bf 963d 1d03 0bbf d57b 71be 90ae a8bf
00000190: 19da b7bf 3e2c c3bf 1ef6 493e d202 02bf
000001a0: f7b3 cfbe 71e7 de3e cabc 03bf bf88 25c0
000001b0: 3cd3 1cbf 40e0 0a3f 5a6e 3ebe 6c82 1fbf
000001c0: 2e97 983e 88bf 98bf dc0e 33bf 24f4 13bf
000001d0: 2759 94bd 5e39 83bf 2ca7 663e eefa c3bf
000001e0: e46d 37bd fe1d 4dbf 4630 e53d 58ca 1640
000001f0: 7a8e 5bbd e9a0 a7c0 a782 3bbe e774 2fbf
00000200: 8221 6a3f 8348 60bf f6e9 f9be 8822 b63e
00000210: 7694 34be fc43 acbf 32a0 54bf 3ce1 d8be
00000220: b61b b2be e8d7 83bf 11d2 883f 9ec7 8abf
00000230: 6d22 83be 4bef b0be 60f8 26bf c0d6 89bf
00000240: ebf2 55bf e6e3 92bf 5b60 273f 7fba 34bf
00000250: 717f cbbd 151f 6b3f 7790 ffbe 4fe1 b03f
00000260: 110a 3b3f c68f c63f aaca ca3e 5765 0bbf
00000270: a625 62bf e1c7 0a3e 4689 cdbe 0c1d 63be
00000280: d547 b73e dbc7 353f b7a1 2f3e 22f4 f9be
00000290: c9cf 14be 4a17 f3be 0d23 37bb 5b66 56be
000002a0: eb5c dd3e 3417 0d3f aab9 833d 9b7d 26be
000002b0: 854d 21be 389f 2a3e bd26 cebd a96a 943e
000002c0: d9e8 09bf 6951 8dbf c3e9 843f 04a0 98bf
000002d0: b27d 1b3e eb3a 013d 2afe 16bf fe44 813e
000002e0: ad3d 8b3e 9224 383f 6141 b7be 25a8 b3bf
000002f0: f985 3b3d c20f d73d b90d b0be e139 1c3e
00000300: e339 f6bd b11a 103f 05b7 773e 3780 57bf
00000310: eaac 07be 1395 fcbe eb8d cb3e 4817 1cbf
00000320: 519e 88be 0911 a73e a9fd c83e b9a0 ac3e
00000330: fdd6 c63c 2acd f53e ab28 f6be 7c0c de3c
00000340: 8eb1 37bf 088f 053f 2214 9bbd a6f5 8e3d
00000350: abad c03e 8bbf aa3d e079 6b3e df75 bfbe
00000360: 9d8a d5bd 5c7b 0c3f 8d64 873e 5420 5e3f
00000370: 1de8 513e f832 f03e 0d07 d6bd 31db ce3e
00000380: 3d97 1ebd c212 00bf c6c7 0abd f67b 3cbf
00000390: 4384 953c bd25 79be 9b93 4cbe fe51 05bf
000003a0: f852 813e e9cc dcbe 0823 07bf 5eb1 e53e
000003b0: d9a5 13bf b6c8 29bf 9fb8 663e 5b5e fc3f
000003c0: 05bf 1ebe 0e18 00c0 955d 353e fddd a6be
000003d0: e815 a13d 9bb8 6e3d 4267 de3e f9df 523f
000003e0: 4b20 00be 8e52 fdbf 1adf 4a3c 9804 99bf
000003f0: 9a91 eabe e8bd 9cbe 17fc 5f3e cf32 eb3f

fc1.bias f4 [128]
-9.090322 -2.4793446 -7.4677935 0.13243033 -0.5953953 -3.4962683 -0.27216256 -2.650071
0.6889143 -5.2092037 -11.752019 -1.4512856 -10.636672 -1.5658983 -3.779312 -1.6370356
-0.56379396 -1.069215 -1.2859509 0.097469725 -7.199024 -1.1430498 -1.7116579 0.69198954
-1.1972176 -0.70839655 -2.058376 -6.4390736 -0.02075764 -1.9251289 -6.4701476 -0.46756598
-3.1841867 1.1492289 -2.538349 0.9473836 -1.5767611 -0.5045072 -1.9790407 -0.63757056
-0.8993355 -2.016148 -0.26939306 -1.961922 -0.43253055 -1.2178897 -0.9214639 -0.46891785
-0.2099103 -0.65952367 0.45663086 1.033207 0.14055896 -0.3511952 -4.4928546 -2.2101884
-9.854745 -1.1091574 1.4503161 -3.7573571 -1.0499057 -0.7129124 -6.203703 -7.7632427
-6.5969763 -0.7241872 -7.4360943 -6.396861 -5.252691 -10.337015 -2.3882117 -5.8895392
-7.1632156 -3.5305676 -0.6197368 -4.8090954 -0.73034716 -1.0866793 -1.979667 -8.092553
-2.2570484 -2.4767447 -1.0286554 -0.9594486 -4.4347925 -4.9595327 -0.80374795 -3.7940843
-2.154702 -4.5816855 -4.1671042 -2.30142 -4.1823883 -0.84419966 -1.197777 -9.055128
-0.3959863 0.7844805 -6.4816375 -4.3332787 -3.9142773 -0.15464619 -0.6215904 -3.941162
-4.8772964 -4.061653 -4.803088 0.15140016 -0.408973 1.888799 -4.262397 1.4338541
0.9665564 -0.020297222 -2.5070677 -4.4096456 -9.286096 -1.4774873 0.20365384 -4.035437
-0.8437575 -6.221693 -0.56696016 1.4170368 -1.1177295 -1.7052543 -0.5742907 -1.3848715
00000000: f571 11c1 95ad 1ec0 2af8 eec0 d19b 073e
00000010: d46b 18bf dcc2 5fc0 e458 8bbe c39a 29c0
00000020: b05c 303f ccb1 a6c0 4508 3cc1 bac3 b9bf
00000030: cf2f 2ac1 5b6f c8bf 3fe0 71c0 628a d1bf
00000040: cd54 10bf 0adc 88bf 0a9a a4bf 359e c73d
00000050: 685e e6c0 754f 92bf 9b17 dbbf 3a26 313f
00000060: 6d3e 99bf 7a59 35bf 6fbc 03c0 e40c cec0
00000070: ed0b aabc a06a f6bf 730b cfc0 cf64 efbe
00000080: b7c9 4bc0 ef19 933f 4f74 22c0 bb87 723f
00000090: 4fd3 c9bf 6227 01bf 3551 fdbf d337 23bf
000000a0: da3a 66bf 9208 01c0 e3ed 89be 4320 fbbf
000000b0: a574 ddbe cfe3 9bbf 0fe5 6bbf 0016 f0be
000000c0: baf2 56be 8bd6 28bf 85cb e93e 2140 843f
000000d0: b0ee 0f3e dbcf b3be 77c5 8fc0 ba73 0dc0
000000e0: 09ad 1dc1 dff8 8dbf f5a3 b93f 8a78 70c0
000000f0: 4f63 86bf 6d81 36bf bc84 c6c0 7c6c f8c0
00000100: 6e1a d3c0 5564 39bf 7cf4 edc0 16b3 ccc0
00000110: 0b16 a8c0 6a64 25c1 76d8 18c0 1b77 bcc0
00000120: 1039 e5c0 d2f4 61c0 12a7 1ebf 1ce4 99c0
00000130: 08f8 3abf 4f18 8bbf ba65 fdbf 197b 01c1
00000140: 7b73 10c0 fc82 1ec0 fbaa 83bf 6c9e 75bf
00000150: d2e9 8dc0 7eb4 9ec0 6dc2 4dbf 47d2 72c0
00000160: a3e6 09c0 2b9d 92c0 eb58 85c0 774a 13c0
00000170: 20d6 85c0 781d 58bf c250 99bf cee1 10c1
00000180: b7be cabe b7d3 483f 9369 cfc0 38aa 8ac0
00000190: 8583 7ac0 925b 1ebe 8c20 1fbf 003c 7cc0
000001a0: d012 9cc0 10f9 81c0 e6b2 99c0 a508 1b3e
000001b0: e964 d1be 2ac4 f13f 8e65 88c0 8888 b73f
000001c0: 3d70 773f 5c46 a6bc cc73 20c0 d11b 8dc0
000001d0: d993 14c1 4e1e bdbf a28a 503e 4d22 81c0
000001e0: 7e00 58bf 1c18 c7c0 4d24 11bf 7661 b53f
000001f0: c311 8fbf c645 dabf b704 13bf 7843 b1bf

fc2.weight f4 [128, 128]
-0.006235503 -0.14506479 -0.08708477 -0.048682094 -0.094272256 -0.06399707 0.054151807 0.047532666
-0.0102138305 -0.06880457 -0.07555485 -0.022910997 0.031089554 -0.032408953 -0.02556034 -0.020664768
-0.03338817 -0.09641862 -0.046419766 0.0004205322 -0.037317708 0.086119115 0.043027963 -0.060817443
-0.03731618 -0.015978914 -0.05425628 -0.013551351 -0.10408833 0.004103592 -0.052143443 -0.1050858
0.09763643 0.0074704625 0.041567847 0.033052657 0.016201226 -0.06518465 -0.042749364 -0.004866696
-0.007854745 -0.09552521 0.022874901 -0.085226014 0.0688387 -0.111364044 -0.009773625 -0.09250276
0.028242424 -0.057318658 0.025974058 -0.08802969 -0.0036094014 -0.003007582 -0.049818292 0.039829142
-0.035073176 -0.035639443 -0.14319256 0.022457378 -0.03151925 -0.014033022 -0.0018170391 -0.0642683
-0.08219517 0.0436815 -0.065044336 0.044971306 -0.008028338 0.06302451 0.007982247 -0.06906065
0.04843101 -0.11251719 -0.014068581 -0.064799204 -0.03138308 -0.10091207 0.02884663 -0.081336096
-0.009341011 -0.09756962 -0.12405472 -0.07575283 -0.11824889 -0.07771747 -0.089552306 0.0057480843
-0.0013722109 0.038347773 0.058666814 -0.04048565 -0.049313974 -0.10958528 0.03609406 0.052154273
-0.06482498 -0.0363582 -0.08076683 -0.13299267 -0.014454764 -0.10245969 -0.0102327205 -0.06994362
-0.08770703 -0.14574522 0.05865264 -0.075852886 -0.0043296916 -0.024462057 -0.13105305 0.08417173
0.0412119 -0.097506404 -0.04593287 0.014792776 -0.08472792 -0.04402591 -0.069112904 -0.050267253
-0.10015155 0.025296401 -0.05447804 -0.16605887 -0.03135637 -0.13922542 -0.038228616 -0.047777377
-0.08339988 -0.15366584 0.025669439 -0.06474034 -0.19767082 0.050163668 -0.022109585 0.031465266
-0.070433095 -0.07352308 -0.11316966 0.041932948 -0.09153936 0.061011795 -0.1314286 -0.042082697
-0.05251226 -0.117248915 -0.09158252 -0.0644032 0.029130816 -0.08628471 -0.043467153 -0.0570461
0.0061620027 -0.10102824 0.042718574 -0.07147762 -0.105462715 -0.13352925 -0.011154815 -0.052493088
0.03550683 -0.019018259 -0.1805482 0.014097168 -0.015746737 -0.065245815 -0.036163222 -0.03127898
0.04248393 -0.08056485 -0.068060964 -0.107761905 -0.13314773 -0.012734918 -0.04958124 0.050323185
-0.10816433 -0.18441315 -0.06427635 0.012312734 0.0038167965 0.04352083 0.015597647 -0.11361051
-0.050562546 -0.08186065 -0.11602517 0.008130284 -0.04451473 -0.115720235 -0.10041159 -0.030406464
-0.0111566195 -0.018414317 -0.13384536 -0.027906861 -0.1128632 -0.0648774 -0.03465174 -0.16108258
0.097346514 -0.15754919 -0.120815925 -0.078747496 -0.0011480798 -0.11307325 -0.18741612 -0.02497593
-0.072255686 -0.023504654 -0.08331012 -0.072095774 -0.07679434 -0.0133074075 -0.019963913 -0.13225345
-0.07211079 -0.09474948 -0.056912903 -0.006474884 -0.12744065 -0.08323111 -0.0023469124 0.092488475
-0.030762095 -0.021160647 -0.045258306 -0.04287205 -0.036629308 -0.08283178 -0.090908535 -0.05399332
-0.017528743 -0.10393266 -0.034310978 -0.14306375 0.0039807153 -0.05841979 -0.067728475 0.03009359
-0.01071617 -0.014450815 0.031903792 0.024400242 0.00960846 -0.077906325 -0.074713975 -0.04351589
-0.0014632939 -0.07150082 -0.09135386 -0.041016996 -0.0906646 -0.04980462 -0.1178736 0.02438212
00000000: 3153 ccbb dd8b 14be 8059 b2bd e066 47bd
00000010: d011 c1bd e510 83bd 49ce 5d3d 9db1 423d
00000020: e957 27bc 69e9 8cbd 80bc 9abd d8af bbbc
00000030: 85af fe3c 40bf 04bd eb63 d1bc 2949 a9bc
00000040: 09c2 08bd 2077 c5bd a722 3ebd e07a dc39
00000050: 74da 18bd 385f b03d 173e 303d b61b 79bd
00000060: dad8 18bd 36e6 82bc d53b 5ebd 7c06 5ebc
00000070: 432c d5bd 6d77 863b 5d94 55bd 3937 d7bd
00000080: 9cf5 c73d c8ca f43b 0c43 2a3d 3962 073d
00000090: 6fb8 843c 887f 85bd f519 2fbd ce78 9fbb
000000a0: 30b1 00bc b9a2 c3bd 2564 bb3c fa8a aebd
000000b0: 4efb 8c3d d512 e4bd 8e21 20bc 1672 bdbd
000000c0: a85c e73c f8c6 6abd 8cc7 d43c e948 b4bd
000000d0: b58b 6cbb da1a 45bb 440e 4cbd e223 233d
000000e0: e4a8 0fbd aafa 11bd 12a1 12be 89f8 b73c
000000f0: 541a 01bd c3ea 65bc b729 eeba 199f 83bd
00000100: f155 a8bd 5feb 323d f735 85bd d533 383d
00000110: 4a89 03bc ff12 813d f8c7 023c ac6f 8dbd
00000120: 985f 463d 6a6f e6bd e87f 66bc 72b5 84bd
00000130: 8b8b 00bd fdaa cebd c54f ec3c 8a93 a6bd
00000140: 0a0b 19bc 95d2 c7bd 6710 febd 4d24 9bbd
00000150: 792c f2bd 562a 9fbd 3367 b7bd 6d5a bc3b
00000160: c2db b3ba 8e12 1d3d 9d4c 703d 48d4 25bd
00000170: 73fd 49bd 3f6e e0bd 5dd7 133d b89f 553d
00000180: f6c2 84bd 56ec 14bd 1469 a5bd 3b2f 08be
00000190: add3 6cbc 63d6 d1bd 24a7 27bc 9a3e 8fbd
000001a0: be9f b3bd 3c3e 15be c03d 703d c258 9bbd
000001b0: 16e0 8dbb a764 c8bc c532 06be 3a62 ac3d
000001c0: cfcd 283d 70b1 c7bd 1b24 3cbd 665d 723c
000001d0: d585 adbd 8354 34bd 118b 8dbd 09e5 4dbd
000001e0: 411c cdbd 663a cf3c 5e24 5fbd 560b 2abe
000001f0: 896f 00bd 1c91 0ebe 9c95 1cbd 36b2 43bd
00000200: 8ecd aabd 945a 1dbe b748 d23c 9596 84bd
00000210: 386a 4abe 6b78 4d3d 291f b5bc b9e1 003d
00000220: 3a3f 90bd 4593 96bd 7fc5 e7bd e2c1 2b3d
00000230: fd78 bbbd 81e7 793d 3895 06be e85e 2cbd
00000240: 1817 57bd 3320 f0bd 9e8f bbbd d3e5 83bd
00000250: c0a3 ee3c 0ab6 b0bd 9d0a 32bd 2ca9 69bd
00000260: a0ea c93b e5e7 cebd acf9 2e3d dc62 92bd
00000270: d6fc d7bd e4bb 08be afc2 36bc fe02 57bd
00000280: 9c6f 113d 2ecc 9bbc a1e1 38be cff7 663c
00000290: 4dff 80bc 999f 85bd e31f 14bd 631e 00bd
000002a0: a103 2e3d 2fff a4bd 8c63 8bbd 46b2 dcbd
000002b0: e157 08be 1ea6 50bc b315 4bbd af1f 4e3d
000002c0: 4385 ddbd cdd6 3cbe 52a3 83bd 59bb 493c
000002d0: 3823 7a3b e642 323d 468d 7f3c a1ac e8bd
000002e0: ac1a 4fbd 8ea6 a7bd 9b9e edbd e234 053c
000002f0: 1455 36bd bbfe ecbd 97a4 cdbd fa16 f9bc
00000300: 41ca 36bc 9fd9 96bc c20e 09be ee9c e4bc
00000310: d224 e7bd 71de 84bd fcee 0dbd d5f2 24be
00000320: 9c5d c73d 9354 21be 576e f7bd 5e46 a1bd
00000330: 2a7b 96ba f392 e7bd 03ea 3fbe 529a ccbc
00000340: cafa 93bd d58c c0bc 7f9e aabd f3a6 93bd
00000350: 5a46 9dbd 5007 5abc 5c8b a3bc 736d 07be
00000360: d2ae 93bd 040c c2bd 811d 69bd 442b d4bb
00000370: cd7f 02be 1275 aabd a8ce 19bb 996a bd3d
00000380: ca00 fcbc 1859 adbc c660 39bd 9a9a 2fbd
00000390: 9d08 16bd b5a3 a9bd 412e babd 1928 5dbd
000003a0: 7098 8fbc a5da d4bd ab89 0cbd 4e7f 12be
000003b0: a970 823b 9749 6fbd 3ab5 8abd d586 f63c
000003c0: e092 2fbc 1cc3 6cbc 8dad 023d 04e3 c73c
000003d0: cd6c 1d3c 5a8d 9fbd a403 99bd b83d 32bd
000003e0: ffcb bfba 066f 92bd bc17 bbbd 7001 28bd
000003f0: 5dae b9bd eeff 4bbd b767 f1bd 03bd c73c

fc2.bias f4 [128]
-0.029213127 -0.060801808 0.048691016 -3.549622 -0.0038886417 -0.1842651 0.055409234 -0.032368176
-0.05362847 -0.7063766 -0.17415705 0.2379743 0.003510125 -0.1336252 0.05167892 -2.4062347
-0.04935433 -0.13272473 -0.16715932 0.095353596 0.056374945 -0.26411018 0.18785205 -0.1042128
0.014259639 0.039289072 0.032529928 0.44788274 -0.07957122 -0.04071769 4.2134705 0.8333285
-0.95236945 -2.0121586 -0.070155546 0.05469479 -0.028333839 5.567436 0.11134649 -1.5472755
0.14241639 -0.22239923 -0.12222112 -0.05215462 -0.15034638 -0.2769686 -0.10329819 -0.09671619
-1.0570682 -0.18792908 0.6487285 0.027470835 -2.0931046 0.10609004 0.5993363 -1.1270695
-0.27432078 -0.083711244 0.063947804 -0.088825844 0.2014733 -0.0654254 0.07576148 -4.790285
0.14345266 1.7121363 -0.122462064 0.0770242 -0.22959146 -0.16128592 0.015503072 -1.3861904
-0.24360017 0.011433844 0.19358942 -0.70016015 0.10998807 -0.17105465 -0.1304724 -0.23823608
-1.3475506 -0.090497985 1.8997675 -0.6709973 0.059630636 -0.22587076 -0.61221194 -1.4267972
-0.16981557 -0.06706051 0.875382 0.5658983 -0.231832 0.45689234 -0.15475562 0.16786672
-0.34629327 -0.0041522672 1.2458512 0.013693946 -0.14707679 -0.17536922 1.9808722 -1.0380311
-0.16745672 -0.22836325 -0.06979726 -0.124476865 -0.1273963 0.024721049 0.10057999 -0.06885709
-0.5667405 -0.13745745 1.0452114 -3.2637236 -1.1416668 0.37396637 -0.20301616 -0.1403141
0.29472578 -0.0017215663 0.05580166 -0.26126444 2.0600026 -0.04318595 0.21835874 0.66748625
00000000: 5e50 efbc 510b 79bd 3b70 473d 022d 63c0
00000010: 95d8 7ebb feaf 3cbe cbf4 623d 7e94 04bd
00000020: 87a9 5bbd 19d5 34bf 3a56 32be 89af 733e
00000030: 200a 663b 0bd5 08be 46ad 533d c0ff 19c0
00000040: c427 4abd fee8 07be d02b 2bbe bf48 c33d
00000050: 6ae9 663d 7339 87be 4a5c 403e 856d d5bd
00000060: 43a1 693c 94ed 203d 1a3e 053d e350 e53e
00000070: 3cf6 a2bd 98c7 26bd c0d4 8640 0455 553f
00000080: 7cce 73bf 35c7 00c0 b6ad 8fbd a507 603d
00000090: 5e1c e8bc 7028 b240 a109 e43d 200d c6bf
000000a0: 9ad5 113e a0bc 63be 114f fabd 15a0 55bd
000000b0: 67f4 19be d4ce 8dbe 008e d3bd 2313 c6bd
000000c0: 034e 87bf 7b70 40be 1213 263f 840a e13c
000000d0: 6df5 05c0 bc45 d93d 1b6e 193f d043 90bf
000000e0: c673 8cbe cd70 abbd 11f7 823d 53ea b5bd
000000f0: 044f 4e3e c1fd 85bd d628 9b3d 044a 99c0
00000100: 41e5 123e 4827 db3f 64cd fabd ddbe 9d3d
00000110: 061a 6bbe 2328 25be 9900 7e3c b06e b1bf
00000120: 5372 79be 0555 3b3c 4e3c 463e b23d 33bf
00000130: 6d41 e13d f328 2fbe 8f9a 05be 29f4 73be
00000140: 8a7c acbf 0257 b9bd 952b f33f 7bc6 2bbf
00000150: 413f 743d aa4a 67be ecb9 1cbf 4aa1 b6bf
00000160: 22e4 2dbe 0557 89bd 0919 603f b6de 103f
00000170: 5e65 6dbe cbed e93e 4278 1ebe 41e5 2b3e
00000180: 5a4d b1be be0f 88bb 0d78 9f3f 935c 603c
00000190: 4c9b 16be fd93 33be 388d fd3f 34de 84bf
000001a0: c679 2bbe 0ed8 69be def1 8ebd baed febd
000001b0: 2d74 02be cc83 ca3c e2fc cd3d f204 8dbd
000001c0: e815 11bf a5c1 0cbe 7dc9 853f d9e0 50c0
000001d0: 2322 92bf 8578 bf3e 78e3 4fbe 80ae 0fbe
000001e0: 4ce6 963e 2ea6 e1ba 4890 643d 74c4 85be
000001f0: 15d7 0340 c0e3 30bd 6f99 5f3e 61e0 2a3f

fc3.weight f4 [2, 128]
-0.017327283 0.025735429 -0.017830953 0.0028019543 -0.029470596 0.011146742 0.022007903 0.018805336
-0.040623564 0.05961401 0.040693235 -0.009446301 0.009250209 0.004776148 -0.001158144 -0.03646865
-0.001846664 -0.023510553 0.0051666 0.00742501 -0.025740482 0.0665531 -0.014050283 -0.05910225
0.0029609394 0.01707524 -0.0033212989 0.05061011 0.020795736 0.01131365 -0.023415225 0.060939696
-0.10273747 0.038048413 -0.05023196 0.01629121 0.06712785 -0.038647473 0.056739748 0.04433369
-0.025083836 -0.024022441 0.034376994 -0.024650551 -0.012530872 -0.025385458 0.06572141 0.08164013
0.013470581 0.009641262 0.031689648 -0.0012903704 0.053833295 0.054577738 -0.03891475 0.06370472
-0.09043359 0.01925278 -0.019544352 -0.0263888 -0.023970678 0.029540766 -0.033979356 0.02207337
-0.019188628 -0.14997353 -0.039978903 0.021118335 0.009096293 -0.0050418363 0.036662016 0.042876024
-0.03621357 -0.037061907 0.04369055 -0.03865398 0.061432343 0.009160456 0.009294364 0.045534372
0.075578384 -0.00056026457 -0.035534974 -0.06949258 -0.020668324 0.026542852 -0.05705488 0.02904896
0.011138052 -0.03335222 0.02032482 0.03354668 -0.018830335 -0.05781671 0.011239348 0.001431251
-0.025936626 -0.035032082 -0.018814765 0.027126566 0.010096468 0.00083151396 -0.032790836 -0.08048114
-0.0057561826 0.021034872 0.033194575 0.0042863805 0.0507055 0.017184623 -0.022328554 -0.011064268
0.13740133 -0.060291264 -0.069427356 0.034886446 -0.035809174 -0.045544945 -0.019516641 0.015800104
-0.015075615 0.102427535 0.028694864 0.05381924 -0.011312814 0.02684158 0.00570128 -0.024318835
0.011600541 -0.007021291 0.017521149 -0.032330524 -0.033975378 -0.015412872 -0.02274389 0.020338653
0.027460113 -0.0069847615 -0.017416662 0.0112412 0.025028916 -0.0008266454 0.005829853 0.021070732
0.025664527 -0.06344828 0.006412241 0.00040178912 -0.013656687 0.0027969566 0.05947603 0.0013819506
-0.0013681547 -0.047080126 -0.040659234 -0.009839895 0.017689304 -0.006889366 -0.023739293 -0.034751054
-0.03343345 -0.014553278 0.0053256513 0.03913777 -0.049245253 -0.026250286 -0.01792187 -0.027315065
-0.029990137 -0.041280154 0.0061632153 -0.01651022 0.011607522 0.03999172 -0.026242303 0.0031511143
-0.038470577 0.045507304 -0.028259592 -0.016104529 -0.030965704 0.0056772926 0.007880638 -0.0047716573
-0.02439961 -0.011979667 0.049909126 0.0057673873 0.044431183 -0.016474154 -0.02523744 0.010466101
-0.010460902 -0.07496822 0.052553117 0.012557633 0.0361527 -0.01770251 0.022620426 -0.028303534
0.06032102 0.006183857 0.049873576 0.038580086 0.00023679373 -0.0009754516 -0.010509147 -0.0099661
-0.00019470484 0.0077212015 0.011028349 0.039055593 0.018965825 -0.012582848 0.06673317 -0.073361255
-0.04290967 -0.025071608 0.041479252 0.020261101 0.009042004 -0.026169628 -0.05022803 0.0038763257
0.017995754 0.025393983 0.046412684 0.021882245 -0.021271873 -0.031500526 -0.0021871224 -0.02324152
0.050824653 -0.035378106 0.0501732 -0.040394776 0.031370614 -0.018926168 0.043553587 -0.0047788126
0.07406216 0.0031574212 0.0022654724 -0.0036479183 -0.02943624 -0.024991995 -0.03230769 -0.02706715
-0.026784888 -0.1578558 -0.02607679 -0.012416487 0.2054434 -0.030623058 -0.009975581 -0.020304287
00000000: f2f1 8dbc 1bd3 d23c 3812 92bc fea0 373b
00000010: 526c f1bc d3a0 363c eb49 b43c a60d 9a3c
00000020: e564 26bd d22d 743d f3ad 263d a8c4 1abc
00000030: 308e 173c 3c81 9c3b ddcc 97ba 2760 15bd
00000040: c30b f2ba 3499 c0bc 954c a93b 804d f33b
00000050: b4dd d2bc fe4c 883d 2833 66bc 3315 72bd
00000060: 520c 423b 60e1 8b3c 26aa 59bb 8c4c 4f3d
00000070: d25b aa3c e35c 393c 49d1 bfbc e79b 793d
00000080: 0668 d2bd a7d8 1b3d 07c0 4dbd 2575 853c
00000090: 547a 893d d04c 1ebd f067 683d 3e97 353d
000000a0: 9e7c cdbc b6ca c4bc e4ce 0c3d f4ef c9bc
000000b0: 494e 4dbc 2af5 cfbc f298 863d f132 a73d
000000c0: b6b3 5c3c 62f6 1d3c 01cd 013d a521 a9ba
000000d0: 4d80 5c3d e88c 5f3d 1365 1fbd 9f77 823d
000000e0: 3f35 b9bd 02b8 9d3c 7a1b a0bc 532d d8bc
000000f0: 285e c4bc 7aff f13c f02d 0bbd 36d3 b43c
00000100: 7831 9dbc a992 19be ebc0 23bd 5c00 ad3c
00000110: 9e08 153c fd35 a5bb e92a 163d c59e 2f3d
00000120: ae54 14bd 3ace 17bd ddf4 323d a353 1ebd
00000130: 7ba0 7b3d bd15 163c 6347 183c 4082 3a3d
00000140: d7c8 9a3d b8de 12ba 1f8d 11bd 2052 8ebd
00000150: 9e50 a9bc 6570 d93c 61b2 69bd 16f8 ed3c
00000160: 607c 363c 569c 08bd 3d80 a63c 3e68 093d
00000170: 1342 9abc 37d1 6cbd 3e25 383c d098 bb3a
00000180: 0c79 d4bc cd7d 0fbd 6c21 9abc 8838 de3c
00000190: a86b 253c f5f9 593a af4f 06bd 4cd3 a4bd
000001a0: 5c9e bcbb 5351 ac3c 09f7 073d c474 8c3b
000001b0: 92b0 4f3d c4c6 8c3c 5fea b6bc e746 35bc
000001c0: efb2 0c3e f9f3 76bd ee2f 8ebd 17e5 0e3d
000001d0: a4ac 12bd 568d 3abd 5de1 9fbc 386f 813c
000001e0: b6ff 76bc 87c5 d13d 7e11 eb3c 9071 5c3d
000001f0: 6259 39bc e0e2 db3c ced1 ba3b 4b38 c7bc
00000200: 3210 3e3c dc12 e6bb 8388 8f3c 036d 04bd
00000210: c429 0bbd 4586 7cbc 6551 babc 3f9d a63c
00000220: 08f4 e03c 6de0 e4bb 63ad 8ebc 032d 383c
00000230: 7109 cd3c 3cb3 58ba 5a08 bf3b 879c ac3c
00000240: 6a3e d23c 2cf1 81bd c71d d23b 39a7 d239
00000250: 4cc0 5fbc 254d 373b 239d 733d 9122 b53a
00000260: a753 b3ba 17d7 40bd 4c8a 26bd 8337 21bc
00000270: 29e9 903c 31c0 e1bb e878 c2bc 1f57 0ebd
00000280: 83f1 08bd df70 6ebc cd82 ae3b ed4e 203d
00000290: 64b5 49bd d70a d7bc e3d0 92bc d8c3 dfbc
000002a0: e0ad f5bc 6115 29bd ccf4 c93b 7140 87bc
000002b0: 7a2d 3e3c 5cce 233d 19fa d6bc ed82 4e3b
000002c0: 5393 1dbd de65 3a3d a980 e7bc a5ed 83bc
000002d0: caab fdbc 9508 ba3b cb1d 013c 905b 9cbb
000002e0: b1e1 c7bc 5d46 44bc 836d 4c3d 5afc bc3b
000002f0: 79fd 353d cef4 86bc bfbe cebc 027a 2b3c
00000300: 3464 2bbc f088 99bd f041 573d 88be 4d3c
00000310: db14 143d db04 91bc 794e b93c d0dc e7bc
00000320: 2d13 773d f4a1 ca3b 3c48 4c3d 2706 1e3d
00000330: d54b 7839 73b5 7fba 8f2e 2cbc da48 23bc
00000340: af29 4cb9 2202 fd3b 40b0 343c c2f8 1f3d
00000350: 385e 9b3c 4a28 4ebc 66ab 883d 6d3e 96bd
00000360: 0dc2 2fbd f962 cdbc 26e6 293d 9cfa a53c
00000370: ea24 143c b061 d6bc e8bb 4dbd f409 7e3b
00000380: d56b 933c 0b07 d03c 3a1b 3e3d 6542 b33c
00000390: 5a42 aebc b206 01bd d355 0fbb 0065 bebc
000003a0: 832d 503d a2e8 10bd 6a82 4d3d fe74 25bd
000003b0: 797e 003d 0d0b 9bbc 3f65 323d 9697 9cbb
000003c0: e7ad 973d bdec 4e3b 5278 143b ea11 6fbb
000003d0: 4524 f1bc 03bc ccbc 1155 04bd eebb ddbc
000003e0: fb6b dbbc f3a4 21be fe9e d5bc 856e 4bbc
000003f0: c15f 523e 35dd fabc 9f70 23bc 2d55 a6bc

fc3.bias f4 [2]
0.71018445 0.26618072
00000000: a6ce 353f d748 883e
